models/data.pth (torch_old, 4197 bytes, 6 tensors)

l1.weight f4 [8, 54]
000000 64 a3 05 3d fd b0 1c 3d 7a 89 f6 3d c2 ad 92 be
       0.032626525 0.038254727 0.1203794 -0.28648192
000010 5e 8c 03 3d 55 cb 59 be 93 9d f4 bd af 6b 3c 3e
       0.032116286 -0.21268971 -0.119441174 0.18400453
000020 92 39 f9 3e 7a 56 4a 3e a6 05 44 bd fd 83 68 be
       0.48676735 0.1975955 -0.04785695 -0.227066
000030 8b 7e e1 3e 4e 55 f8 bd 05 81 66 3d f2 fd 9c bd
       0.44041857 -0.121256456 0.056275386 -0.07665624
000040 7d ff 26 be 80 86 59 be 7f d7 f4 3e 0a a1 58 be
       -0.16308399 -0.21242714 0.4782066 -0.21155182
000050 47 f4 12 be 94 ab 57 be a0 02 59 be 80 77 d5 be
       -0.14350997 -0.21061546 -0.21192408 -0.41692734
000060 ed ab 7d be f3 c2 de bd 7d ef 01 3f e0 49 ec 3a
       -0.24772616 -0.10877027 0.50756055 0.0018027388
000070 83 d9 e5 3e 83 73 2b be 29 ce 9b be 04 fb 78 bd
       0.4489251 -0.16743283 -0.30430725 -0.060786262
000080 ca 90 c4 3c a9 14 af 3e 19 33 ab 3e 7e 36 16 bd
       0.023994822 0.3419545 0.33437422 -0.03667306
000090 18 e9 c3 3e 36 3e b4 3e 80 26 7a 3d a4 81 10 bd
       0.38263774 0.35203713 0.061071873 -0.035279885
0000a0 70 d5 76 be 7f ea c9 3e 2b 56 d4 3a 57 46 60 3e
       -0.24104857 0.3943672 0.0016199996 0.21901833
0000b0 74 16 5b 3e ea eb 42 3e f3 17 a3 be a6 c5 d5 bd
       0.21395284 0.19035307 -0.3185421 -0.10438089
0000c0 52 2c 3e 3e c2 42 10 3f 46 77 83 bd 86 5b c9 3e
       0.18571594 0.56351864 -0.06419234 0.3932764
0000d0 5c a2 d7 3d aa 7e ab 3e a2 4f 04 3f 47 b9 93 bd
       0.105290145 0.33495075 0.5168401 -0.07213073
0000e0 a2 24 e8 3e f0 76 fc 3c 84 56 f2 3d 2f 46 b4 be
       0.4534045 0.030818433 0.11832908 -0.35209796
0000f0 58 f3 5c 3e 98 16 bc 3e b7 55 ed 3e 45 b0 3f 3e
       0.21577203 0.36735988 0.46354458 0.18719585
000100 e6 d8 f9 3d 28 69 fc 3e b4 ef 06 3e f3 43 26 3f
       0.12199573 0.49298978 0.13177377 0.6494743
000110 d6 c8 3f be d3 86 ee 3e 72 d6 8e 3e f1 f8 e9 be
       -0.18728957 0.46587238 0.27897984 -0.4569774
000120 51 29 3b bd f1 7b 96 3e b0 72 09 3f 1b 62 94 3e
       -0.0456937 0.29391435 0.53690624 0.289811
000130 18 7a 92 3e ff 80 a9 3e 98 0a 06 3f 0a d9 75 3e
       0.28608775 0.3310623 0.52359915 0.24008575
000140 41 2a a3 bd b0 4e b6 be 07 26 48 3d 33 40 e6 be
       -0.07967044 -0.3560691 0.04886439 -0.44970855
000150 f5 62 04 bd fa ae 10 3f e6 06 b9 3e 22 f1 d9 3e
       -0.032320935 0.56516993 0.36138076 0.42566782
000160 64 a5 5c be 14 c7 d4 3e c0 3e 0f be 26 a3 d6 3e
       -0.21547467 0.41558135 -0.13988781 0.41921347
000170 0d bc a7 3e 7d 8c a2 3e 87 3a 4a be 59 d6 16 be
       0.3276066 0.3174781 -0.19748889 -0.14730205
000180 d5 86 fc 3e 61 42 23 bd 9d d9 2a 3f 05 2b 83 be
       0.4932162 -0.039858226 0.667383 -0.2561876
000190 9a 3a 63 3f 00 6c c4 3e 18 2a 2b 3e 2f ef 41 be
       0.88761294 0.38363647 0.16715276 -0.18938898
0001a0 54 7e 9e 3e 71 ee 0c be 0c 4d 64 3e b0 bc 44 3e
       0.30955756 -0.13762833 0.22295016 0.19212604
0001b0 ac e7 05 be c2 d2 0f 3f b7 6b d8 3e 9a 51 18 3f
       -0.13076657 0.56180966 0.4226968 0.59499514
0001c0 74 0d 39 3f f1 7d 16 bf 65 80 8d bc 57 7d c8 3e
       0.7228615 -0.5878592 -0.017273137 0.39158127
0001d0 2c c6 df 3d 2f de 99 3e 14 af 57 3f 71 8b ea 3e
       0.1092647 0.30052325 0.84251523 0.4580951
0001e0 ca cb a6 3e 80 8b f5 3e aa c0 ee 3e 22 20 87 3e
       0.32577354 0.47957993 0.46631366 0.26391703
0001f0 60 39 3c 3f 3b d6 26 bf df 3e 60 be 72 6c 58 3f
       0.7352505 -0.6517064 -0.21898983 0.84540474
000200 9c e2 c0 bd 5b 9e 5a 3f 1a d8 53 3f bc ac 5b 3f
       -0.09418222 0.8539788 0.8275162 0.85810447
000210 e1 87 a7 3e fc a2 12 3f a4 59 a3 be 3e 0a 11 3f
       0.32720855 0.57279944 -0.31904328 0.56656253
000220 3c d3 92 be 10 14 95 3e 5a 50 ea be b6 b6 d4 3e
       -0.28676784 0.2911687 -0.45764428 0.41545647
000230 1b 59 25 bd 7f fa ec 3e 35 a4 11 3f 14 bb 99 3e
       -0.04036818 0.46284863 0.56891185 0.30025542
000240 3a e5 87 be 63 e4 09 3e dc dc cc 3c 80 cf 28 bd
       -0.26542073 0.13466029 0.025007658 -0.041213512
000250 1b c0 f2 be e2 99 be be 50 2b 8c 3e 4e c3 b3 3e
       -0.4741219 -0.37226778 0.27376795 0.35109943
000260 34 ca ab 3e ec cb f0 3e aa 43 c8 be c4 96 7d be
       0.33552706 0.4703058 -0.39114124 -0.24764544
000270 e9 45 03 3f 9d a9 ec be b6 4b de 3e 17 d2 19 be
       0.5127855 -0.46223155 0.43417138 -0.15021549
000280 63 9a 5b 3d 48 94 8c 3e db 77 0d 3f d8 31 b2 3e
       0.05361403 0.2745688 0.5526101 0.34803653
000290 03 11 cc 3e 3a 87 67 bc 0e 90 ab bc 93 1e 87 3d
       0.3985673 -0.014131362 -0.020942714 0.065976284
0002a0 07 10 b7 3e c8 63 85 3e d7 19 98 3e ce ee 6d 3e
       0.35754415 0.2605269 0.29707214 0.23235628
0002b0 b9 49 be bd de 1b fe bd 1f b7 70 be 5b f3 89 be
       -0.09291405 -0.12407659 -0.23507355 -0.26943478
0002c0 80 59 0e 3c a9 5e 33 be 00 83 d8 bd 31 48 0e 3e
       0.008688331 -0.17516579 -0.10571861 0.13894726
0002d0 c1 cb b6 be 2a e9 b2 be 3f 91 18 3f 1f 39 b6 be
       -0.35702327 -0.34943515 0.5959663 -0.35590455
0002e0 5c 38 b8 be 05 35 ea be ea 20 62 3e 05 3d 17 3d
       -0.359805 -0.45743576 0.22082868 0.036923427
0002f0 01 53 b7 be 96 62 a4 be 56 f0 12 bd c5 78 be be
       -0.35805514 -0.32106465 -0.035873733 -0.37201515
000300 db 9e 50 bc 7f ff 15 be 67 2a d3 3e c0 2a f0 3e
       -0.012733187 -0.14648245 0.41243288 0.46907616
000310 15 4c d8 bd d2 25 47 be 28 42 71 3d 27 90 6a 3e
       -0.105613865 -0.19448021 0.058900982 0.22906552
000320 7c f2 8a 3e 3b e3 dd 3e 5e 5d 44 3d f8 d0 0c bf
       0.27138126 0.43337426 0.047940604 -0.5500636
000330 38 98 fd bd 8c 89 0f bd 2c a0 86 3e 04 eb 07 bb
       -0.12382549 -0.035043284 0.26294076 -0.0020739445
000340 80 a2 79 3f d7 1b 07 3f 85 95 4d be 31 4e ce be
       0.9751358 0.52776855 -0.20076568 -0.4029403
000350 5c 93 67 be 74 08 79 be 32 48 86 3e 60 39 f7 3e
       -0.22614807 -0.24319631 0.26226956 0.4828596
000360 1b 41 bd bd 76 91 9e be 42 8c ff 3e 1e 80 5d be
       -0.092409335 -0.30970353 0.49911696 -0.21630904
000370 c9 3d 97 bd 5b 60 54 be 8c 70 fe 3e be 68 92 3e
       -0.073848315 -0.20739882 0.4969524 0.28595537
000380 b4 17 09 3f e8 2c 3b 3e 6c 37 80 bd 79 84 30 3f
       0.53551793 0.18278849 -0.06260571 0.6895214
000390 dc 93 28 3f c1 a2 4d 3f 69 c0 f4 3d 9f 27 b6 3e
       0.65850616 0.8032647 0.11950762 0.35577103
0003a0 39 38 14 be b6 63 54 be 04 81 9b 3e ae 57 54 be
       -0.14474572 -0.20741162 0.3037187 -0.20736572
0003b0 96 3c 5d bd a3 75 54 be 30 a5 54 be b4 8d 09 be
       -0.054012857 -0.20748 -0.20766139 -0.13432962
0003c0 13 26 1a 3f 70 43 d1 bd 33 b2 f6 3e f1 57 31 be
       0.60214347 -0.10217941 0.4818283 -0.17318703
0003d0 ae 8d 91 3e fa de 8f bd df 5f 04 be 32 ab 5c 3f
       0.28428406 -0.07024951 -0.12927197 0.86198723
0003e0 54 95 17 bd 06 86 d3 3e bc 2f e7 3b 37 74 f6 3e
       -0.037007645 0.4131319 0.007055251 0.4813554
0003f0 c7 b8 c7 3e e7 4e 15 3f 4f bf c9 3e 84 f5 d3 3e
       0.3900816 0.5832352 0.3940377 0.4139825

l1.bias f4 [8]
000000 e0 8a 57 3e c1 de 32 3f 5b 2c 41 3f c4 d7 3b 3f
       0.2104907 0.69871145 0.75458306 0.7337611
000010 d8 36 54 3e 43 a8 d0 3e bf e7 33 3f 21 8a d2 3e
       0.20724046 0.40753374 0.7027549 0.4112101

l2.weight f4 [8, 8]
000000 03 9e 26 be 29 0e 34 3f 7b 61 cc 3f b4 8a 6a bd
       -0.16271214 0.70334107 1.5967249 -0.057261184
000010 1b db f4 be 42 9d 78 3e 1a eb 8c 3e 25 95 77 bf
       -0.47823414 0.24278739 0.27523118 -0.9671195
000020 83 8d 0f 3f 52 fe 22 3f 0f c8 17 3d aa a8 7b bf
       0.56075305 0.6366931 0.037056025 -0.98304236
000030 62 8f 8e 3f a2 8d 31 3f c6 6d 55 3d 75 a4 3d 3f
       1.1137507 0.6935674 0.05210664 0.74079067
000040 af 4b 8e 3f 70 27 8c bf 06 90 15 3f af cb d4 3d
       1.1116847 -1.0949535 0.5842289 0.10390412
000050 78 3d 16 3f 8f b2 4d bf a1 51 35 3f 6c bc 80 be
       0.58687544 -0.80350584 0.7082768 -0.25143754
000060 8c 79 39 bf e4 29 79 3f a1 ac 50 3f 8b 9e 22 3f
       -0.7245109 0.97329545 0.8151341 0.6352317
000070 72 e0 ec be f5 d8 5d bf 01 f5 7c bf 76 97 7a 3f
       -0.46264988 -0.86659175 -0.98811346 0.9788736
000080 3b c6 82 bf 78 b6 5d 3e c1 a7 35 bf 5b a9 4d 3f
       -1.0216745 0.21651638 -0.709591 0.8033654
000090 db 5a a4 bf a6 f8 43 3f ed bf 33 3f 40 da 53 3f
       -1.2840227 0.7655128 0.7021473 0.827549
0000a0 2b 5f 2c 3f 07 e9 a0 3e ab d6 27 bf 6b 30 9c 3f
       0.67332715 0.31427786 -0.6556193 1.2202276
0000b0 9d ce 11 3d 47 dc 64 3f bd 73 8a 3f e9 48 a1 3f
       0.035597432 0.89398617 1.081657 1.2600375
0000c0 fd c3 ee bc a2 e6 20 3f 3c 60 c1 bd 5a d9 f0 3d
       -0.029146189 0.6285192 -0.094421834 0.117602065
0000d0 68 36 53 3f 85 6e f5 3e 23 65 3a bd bb c6 5b bf
       0.8250489 0.47935882 -0.045506608 -0.85850114
0000e0 f0 b6 4b 3e c9 01 7c 3f bd 82 fb 3e aa d7 7e 3f
       0.19894004 0.98440224 0.49123183 0.9954783
0000f0 29 79 b2 3e 2a cb 9c 3e 60 06 1b bf 92 df d0 be
       0.34858063 0.30623752 -0.605566 -0.4079557

l2.bias f4 [8]
000000 75 5f 7b 3f f0 cb a4 be 84 d0 b6 3c de ae fa 3e
       0.9819253 -0.32186842 0.022316225 0.48961538
000010 75 49 0f 3f f6 39 48 3e e3 a5 02 bf 2e 42 63 be
       0.5597146 0.1955336 -0.51034373 -0.22193214

l3.weight f4 [7, 8]
000000 4e 8b 25 be 6a b0 1f 3f 3c 22 61 bf 37 0b fc 3c
       -0.16166422 0.6237856 -0.8794286 0.030767066
000010 ee 8b 04 bf 39 df a0 bf eb 22 3d 3f 6d f5 6e 3e
       -0.51776016 -1.2568122 0.73881406 0.2333581
000020 c3 2f 2c 3f fe de 73 bf 55 3a 54 3f f9 3a 7c bf
       0.6726038 -0.95262134 0.8290151 -0.98527485
000030 56 52 c0 be 44 4c e0 bb 26 59 82 bf 56 b3 a5 bf
       -0.37562817 -0.006845029 -1.0183456 -1.2945354
000040 2a cb 1f bd 82 ee 3d bf 6c e7 14 bf d6 3d a6 bf
       -0.03901211 -0.7419206 -0.5816562 -1.2987621
000050 b3 48 a1 3f de 4c ee 3e 93 49 4f bf 4a ec ab bf
       1.2600311 0.4654302 -0.8097164 -1.3431485
000060 b2 65 7e 3f 6c 3a 8b bf e8 8c 3c bf 96 af ef 3e
       0.99373925 -1.0877204 -0.73652506 0.4681365
000070 c3 d2 c9 bf 24 91 4e bf 74 93 ad bf a1 76 62 3e
       -1.5767444 -0.80690217 -1.3560624 0.22115566
000080 0d 43 a0 bf 3d b9 3f 3f 43 03 36 3e 69 a7 3b bf
       -1.2520462 0.74892026 0.17774682 -0.7330232
000090 ee b1 95 bf df 00 d8 3e 42 0b 3b bf 80 f5 ee bd
       -1.1694925 0.42188165 -0.73064053 -0.11667919
0000a0 17 51 28 be a8 d8 96 bd 3e 31 c2 be 5b a0 a6 bf
       -0.16437183 -0.07365543 -0.37928194 -1.3017687
0000b0 80 2f 7c bf 32 fb 82 3e af 2a 25 3f 28 cb 13 3f
       -0.9850998 0.25582272 0.64518255 0.57731867
0000c0 f8 39 09 bf bf 28 69 bf 40 29 2e bf d3 7b 0f 3f
       -0.5360408 -0.910778 -0.6803169 0.56048316
0000d0 6f e8 39 be 8c 91 a4 3e fe 7e 5f bf 0e 4b 61 3e
       -0.18155073 0.32142293 -0.8730315 0.22001287

l3.bias f4 [7]
000000 86 44 58 be 5c 10 6e 3c f8 b9 99 3e 8c 45 13 3f
       -0.2111989 0.014530268 0.30024695 0.57527995
000010 10 73 fd 3c 70 43 19 be 78 4f 85 bc
       0.030938655 -0.14967132 -0.016273245
